Week08/Practical08_Exercise.pt (torch, 37376 bytes, 24 tensors)

weight f4 [32, 8]
0.114954226 0.55328804 -0.18007268 1.0500196 0.2541668 0.49991155 -0.44675052 0.18342032
-0.03783571 -0.88869023 -0.0744727 0.18829367 0.10963558 0.78399855 0.9760018 -0.04743249
0.20924826 -0.013363087 -0.5601515 0.4512675 0.506323 0.6067078 0.112629384 0.32923105
-0.49586684 -0.62996167 -0.12556158 -0.15880436 -0.30300894 -0.7673863 -0.21610093 -0.3127353
0.12816015 -0.16783825 -0.12932488 0.13253874 0.75194544 1.3028823 0.53392905 -0.2669111
0.7367566 -0.53619117 0.33256677 0.49747777 0.03622667 0.14127755 0.41554865 0.21751277
-0.31090638 -0.7299916 -0.46993205 -0.49388123 0.31182718 0.63977134 0.13766675 0.2707782
0.29150596 -1.4604245 0.43164998 -0.7904359 -0.5812431 -0.4725779 0.26811847 -0.055818036
0.26099235 -0.90226215 0.48487523 -0.51705146 -0.930874 -0.7559051 0.38152462 0.27945262
0.18465203 -1.8781099 -0.18534626 -0.817312 0.3927157 0.6425591 -0.15574211 0.4186277
-0.120388806 -2.1253169 0.12086951 -0.5629704 0.542689 0.1864328 0.2155733 -0.4454309
-0.36244428 0.03266985 -0.09259837 0.06360152 0.9818735 1.148075 -0.13085318 -0.37921625
0.8157601 -1.2450849 0.31881398 -0.6628677 -0.871503 -0.07875688 0.06709339 0.10371862
-0.59811556 -1.4849327 -0.60843694 -0.38217315 -0.3998071 -0.33557084 0.07250231 -0.081901245
-0.40491334 -1.9661918 -0.32822526 -0.7235031 0.36009905 -0.047356643 -0.38728565 -0.008442345
-0.009073788 0.04525551 -0.06809615 -0.18094522 -1.0180427 -0.73110247 -0.6400564 0.014858555
0.06357413 0.052999802 0.625913 -0.4464338 -0.27966642 0.5243396 0.08256147 0.07131697
-1.2309052 -1.721028 -0.34121442 -0.3657282 0.6400676 -0.17199884 0.22541636 0.16306612
-0.86977786 -1.4269513 0.0061772806 -0.24134172 0.44610047 0.0365276 0.07447379 0.10030093
-0.03933435 -2.1277413 0.26917526 -0.9601974 0.6864411 0.4953314 -0.1532965 0.0144725
0.24444601 -1.512107 0.07837104 -0.8646444 0.8207772 0.43169954 -0.10420213 0.4894599
-0.02955189 -1.0475013 -0.116558716 -0.3862689 0.62378067 0.5513711 0.13571791 -0.01758741
-0.60968083 -0.20879984 -0.51720744 -0.2727578 0.97102183 0.6326736 -0.0647315 0.020034326
0.88606495 0.7200548 0.8153404 -0.069031425 -0.95126987 0.23393282 -0.5342166 0.34838352
0.06391385 -0.029853031 8.557274e-05 -0.098235264 0.74867135 0.8649532 0.40306056 0.27672458
0.14300343 -0.16123697 0.2744696 0.021710945 -0.7322461 -0.63283575 -0.66905445 0.080167055
-0.08067339 0.16716653 0.29021946 0.31224152 -1.0595734 -1.0446188 -0.2555138 0.74373496
-0.018007414 -0.036638282 -0.3293009 -0.5699489 -0.9117334 0.69047415 -0.63016665 0.09371142
-0.44563124 0.21006483 1.8026195 -0.012929943 -0.8540499 -0.6925169 0.067753345 0.15172033
0.0427722 0.6525181 -0.01772937 -0.36319876 1.3286157 -0.09527378 -1.1433306 0.33178368
0.19808646 -0.61507726 0.2267723 -0.48778263 -0.6535397 -0.530904 -0.5836483 -0.09663537
-0.003311911 0.28476605 -0.36758268 -1.9858351 -0.02006032 0.014226305 0.4794023 -0.28553557
00000000: 1f6d eb3d 49a4 0d3f f964 38be 0b67 863f
00000010: 2722 823e 68f4 ff3e 7cbc e4be 89d2 3b3e
00000020: 9ef9 1abd 3481 63bf 2585 98bd 0ed0 403e
00000030: 9e88 e03d 21b4 483f 41db 793f 9248 42bd
00000040: 2d45 563e d9f0 5abc 1766 0fbf 890c e73e
00000050: 629e 013f 3451 1b3f 3caa e63d f990 a83e
00000060: 42e2 fdbe 2b45 21bf 3793 00be 9c9d 22be
00000070: fd23 9bbe 6e73 44bf 9049 5dbe d71e a0be
00000080: 6a3c 033e cadd 2bbe be6d 04be 3cb8 073e
00000090: 7f7f 403f d9c4 a63f 93af 083f 92a8 88be
000000a0: 159c 3c3f d343 09bf 3146 aa3e 68b5 fe3e
000000b0: 6b62 143d 10ab 103e cbc2 d43e abbb 5e3e
000000c0: 1f2f 9fbe bbe0 3abf ef9a f0be 00de fcbe
000000d0: d0a7 9f3e 0ec8 233f 83f8 0c3e 71a3 8a3e
000000e0: 4540 953e 31ef babf 3a01 dd3e 025a 4abf
000000f0: 59cc 14bf bbf5 f1be d346 893e 74a1 64bd
00000100: caa0 853e a7fa 66bf 9141 f83e 7c5d 04bf
00000110: c24d 6ebf ff82 41bf 3257 c33e 6a14 8f3e
00000120: 6c15 3d3e e865 f0bf 69cb 3dbe 5c3b 51bf
00000130: 0812 c93e c17e 243f dc7a 1fbe 5f56 d63e
00000140: 688e f6bd 3105 08c0 6f8a f73d d41e 10bf
00000150: abed 0a3f 3de8 3e3e 3fbf 5c3e 850f e4be
00000160: 4c92 b9be d2d0 053d 37a4 bdbd 8441 823d
00000170: 105c 7b3f 1ff4 923f 60fe 05be a228 c2be
00000180: a7d5 503f f15e 9fbf 963b a33e b3b1 29bf
00000190: d21a 5fbf 494b a1bd 4268 893d 6e6a d43d
000001a0: 1a1e 19bf 4612 bebf 86c2 1bbf 33ac c3be
000001b0: 84b3 ccbe f1cf abbe 177c 943d d7bb a7bd
000001c0: cd50 cfbe 2cac fbbf 240d a8be 8037 39bf
000001d0: e75e b83e 0af9 41bd 4e4a c6be c351 0abc
000001e0: 3aaa 14bc d75d 393d ff75 8bbd b449 39be
000001f0: 394f 82bf 8829 3bbf bcda 23bf 4c71 733c
00000200: 2733 823d 5216 593d d63b 203f f992 e4be
00000210: 7030 8fbe 1f3b 063f fd15 a93d a20e 923d
00000220: 4d8e 9dbf a54a dcbf a8b3 aebe ba40 bbbe
00000230: 78db 233f 7720 30be 8cd3 663e cefa 263e
00000240: c3a9 5ebf 57a6 b6bf c96a ca3b 4922 77be
00000250: 4867 e43e f79d 153d b785 983d 936a cd3d
00000260: 0e1d 21bd ea2c 08c0 57d1 893e 7fcf 75bf
00000270: 9bba 2f3f 149c fd3e c2f9 1cbe 111e 6d3c
00000280: 0e50 7a3e b98c c1bf ff80 a03d 5659 5dbf
00000290: 741e 523f b907 dd3e ed67 d5bd 7d9a fa3e
000002a0: ce16 f2bc 8614 86bf 56b6 eebd 0ac5 c5be
000002b0: 17b0 1f3f a826 0d3f a3f9 0a3e 7913 90bc
000002c0: 0b14 1cbf a0cf 55be b567 04bf e9a6 8bbe
000002d0: e394 783f e6f6 213f f391 84bd 071f a43c
000002e0: 27d5 623f 8355 383f 26ba 503f 5960 8dbd
000002f0: 6c86 73bf 168c 6f3e 6bc2 08bf 535f b23e
00000300: 44e5 823d 588e f4bc 8475 b338 922f c9bd
00000310: eda8 3f3f 936d 5d3f f45d ce3e d8ae 8d3e
00000320: 7e6f 123e 4e1b 25be 4887 8c3e 27db b13c
00000330: 7b74 3bbf 8601 22bf 2747 2bbf a02e a43d
00000340: 1738 a5bd b42d 2b3e a597 943e 1fde 9f3e
00000350: 1aa0 87bf 12b6 85bf b4d2 82be 6a65 3e3f
00000360: 4984 93bc 0612 16bd 219a a8be 2ce8 11bf
00000370: 5c67 69bf eac2 303f 9a52 21bf c6eb bf3d
00000380: c729 e4be 3c1b 573e 3cbc e63f 1dd8 53bc
00000390: 04a3 5abf ca48 31bf 44c2 8a3d 935c 1b3e
000003a0: e731 2f3d 6d0b 273f 2f3d 91bc 30f5 b9be
000003b0: 1410 aa3f e61e c3bd a858 92bf 8ddf a93e
000003c0: 2dd7 4a3e b475 1dbf ff36 683e a5be f9be
000003d0: 614e 27bf 53e9 07bf fa69 15bf c4e8 c5bd
000003e0: a50c 59bb dbcc 913e cc33 bcbe d82f febf
000003f0: 8a55 a4bc 7315 693c 3874 f53e b831 92be

bias f4 [32]
0.29598644 -0.31490654 0.5065388 0.12786797 0.22766653 -0.26867315 0.40050402 0.22823851
0.36477146 0.3493665 0.31421223 0.025119811 0.19193631 -0.3849845 0.2494259 -0.025482435
0.8000965 0.33444434 0.38972098 0.31843907 0.055550292 0.3497282 0.045841817 -0.16323516
-0.016339935 0.0115400115 -0.011328781 -0.0040145637 0.8064394 0.04903475 0.028374149 1.3788669
00000000: 898b 973e 6e3b a1be 87ac 013f d2ef 023e
00000010: 6a21 693e 878f 89be dd0e cd3e 5bb7 693e
00000020: 53c3 ba3e 2ae0 b23e 6de0 a03e 10c8 cd3c
00000030: f48a 443e b01c c5be 8169 7f3e 8ac0 d0bc
00000040: 20d3 4c3f 4a3c ab3e 8289 c73e 720a a33e
00000050: b488 633d 930f b33e a1c4 3b3d 1e27 27be
00000060: 54db 85bc 5112 3d3c 5a9c 39bc 9a8c 83bb
00000070: d072 4e3f a9d8 483d e770 e83c b67e b03f

weight f4 [32, 32]
0.7721392 -0.1832863 0.3902346 0.20401303 0.62262774 0.9715238 0.31054172 0.4174086
0.17956378 0.261667 0.62797433 0.4005805 0.36848205 0.64243066 0.6213029 0.41144004
-0.0024419609 0.873403 0.3697955 0.74922246 0.63271487 0.47221333 0.5384696 0.7375414
0.31876016 0.54317 0.7307946 -1.0667298 0.4730664 -1.1708732 0.63394654 -0.24890475
0.81578195 0.2126985 1.2540758 -0.24360152 -0.4727346 0.80333924 0.32885513 -0.122679956
-0.34873566 -0.12116884 -0.14241767 -0.38142666 -0.24577832 -0.4108344 -0.3495163 -0.49413556
-0.4330565 0.09500064 -0.35031638 -0.5641905 -0.41601807 0.17570777 0.515698 -1.1227492
-0.702819 0.9858066 0.57827026 -0.07117585 -0.6995826 -0.16182742 0.41084474 0.04201735
0.29994813 -0.7782133 0.038833722 0.28040954 0.66850644 0.9093488 0.12314982 0.73681223
0.33130807 0.16721681 0.50112516 0.5036696 0.6933023 0.6776523 0.73370427 0.4259382
-0.33295998 0.75984156 0.57547975 0.7409811 0.3398306 0.30493686 0.13861613 0.38814014
0.42545384 0.38807115 0.5044989 -1.445875 0.29229248 -1.0051422 0.5110858 0.33577892
0.0024823651 0.16083303 -0.15062284 -0.09490522 0.10310552 -0.060466602 -0.03618623 -0.10184418
0.09391053 0.08670953 0.028214822 -0.09934208 -0.17293121 -0.0075666853 0.024465933 -0.109287985
-0.049461707 0.09129756 -0.013538857 0.00797587 -0.04350484 -0.16008715 -0.1662156 -0.11086567
-0.089859374 0.026672056 -0.07869654 -0.06915895 0.1413057 0.03471341 0.099008024 -0.1155516
-0.59884727 -0.42217603 -0.26409099 0.5227097 0.1813324 0.5694107 -0.019072097 0.4810585
0.5285987 0.3179861 0.42838258 -0.14313748 0.46397486 0.76274633 0.5623755 0.72855467
0.10796881 0.64083266 0.06958896 0.729408 0.19108595 0.16998416 0.0063305236 0.3521315
0.21299194 0.18600261 0.439879 -0.91595215 0.6065636 -0.059245646 0.2889809 0.38903004
0.5747457 -0.49717838 0.39424828 0.29371464 0.67598367 1.2275825 0.3580739 0.6463441
0.32568273 0.57887137 0.80620587 0.5431928 0.582011 0.70485187 0.9803142 0.61118835
0.11929278 0.6716663 0.40505064 0.72229743 0.8601021 0.6456699 0.49620864 0.42854342
0.68691736 0.3333696 0.3768643 -1.1434227 -0.1124287 -0.8940578 0.59962815 0.21512266
0.5566112 -0.8587295 0.29637587 0.25586444 0.5878957 0.9761795 0.36526608 0.5069485
0.5151119 0.47698596 0.6949799 0.64072406 0.50619906 0.59917563 0.6620846 0.4971935
-0.09314176 0.90706116 0.45111755 0.5318611 0.50920075 0.30685222 0.42708698 0.6078789
0.67921436 0.45757845 0.2771417 -1.2921933 0.24052456 -0.92619854 0.5295153 -0.06778652
0.3640392 -0.867113 0.27794394 0.26442197 0.9339906 0.83639705 0.44381523 0.58058965
0.40229133 0.53526074 0.75281847 0.7587445 0.8144028 0.43211082 0.9890223 0.68889123
0.09065061 0.7260054 0.5484033 0.743443 0.5605885 0.62658644 0.27405474 0.3352957
0.31284663 0.37491408 -0.019250177 -0.91779816 -0.37553492 -0.93207955 0.4986367 0.3200304
00000000: eaaa 453f 67af 3bbe d4cc c73e cbe8 503e
00000010: 8864 1f3f c9b5 783f 53ff 9e3e 94b6 d53e
00000020: 91df 373e 38f9 853e edc2 203f e318 cd3e
00000030: aea9 bc3e 5676 243f b50d 1f3f 45a8 d23e
00000040: 4e09 20bb 5797 5f3f d655 bd3e 0bcd 3f3f
00000050: 9af9 213f f2c5 f13e 25d9 093f 83cf 3c3f
00000060: 8834 a33e 300d 0b3f 5b15 3b3f 9a8a 88bf
00000070: c235 f23e 2cdf 95bf 524a 223f e3e0 7ebe
00000080: 16d7 503f a3cd 593e 8e85 a03f ad72 79be
00000090: 450a f2be a4a7 4d3f b35f a83e a13f fbbd
000000a0: 7b8d b2be 5e27 f8bd f0d5 11be 5b4a c3be
000000b0: 50ad 7bbe e358 d2be cdf3 b2be 56ff fcbe
000000c0: 95b9 ddbe b28f c23d ab5c b3be ca6e 10bf
000000d0: 5200 d5be bdec 333e c904 043f 3fb6 8fbf
000000e0: f2eb 33bf d25d 7c3f 8509 143f a5c4 91bd
000000f0: d817 33bf 16b6 25be 3e5a d23e 631a 2c3d
00000100: cd92 993e fd38 47bf 1c10 1f3d d791 8f3e
00000110: 3d23 2b3f 15cb 683f f935 fc3d ba9f 3c3f
00000120: 36a1 a93e e23a 2b3e bd49 003f 7ef0 003f
00000130: 427c 313f 9f7a 2d3f 0bd4 3b3f 9214 da3e
00000140: bb79 aabe fa84 423f a452 133f f0b0 3d3f
00000150: 47fe ad3e af20 9c3e 63f1 0d3e 4eba c63e
00000160: 16d5 d93e 43b1 c63e d726 013f 6f12 b9bf
00000170: 5ca7 953e 80a8 80bf 85d6 023f 37eb ab3e
00000180: 2daf 223b 6ab1 243e e03c 1abe ab5d c2bd
00000190: fd28 d33d d4ab 77bd 0338 14bd ae93 d0bd
000001a0: 2a54 c03d c494 b13d c522 e73c dc73 cbbd
000001b0: e114 31be f5f1 f7bb c86c c83c 61d2 dfbd
000001c0: 5c98 4abd 37fa ba3d 15d2 5dbc 39ad 023c
000001d0: 2232 32bd e3ed 23be 6c34 2abe 8a0d e3bd
000001e0: 3108 b8bd 5b7f da3c a72b a1bd 35a3 8dbd
000001f0: 71b2 103e a62f 0e3d b8c4 ca3d 51a6 ecbd
00000200: 0e4e 19bf 7527 d8be ef36 87be 4ed0 053f
00000210: 33af 393e e6c4 113f 163d 9cbc 4d4d f63e
00000220: 3f52 073f 13cf a23e f654 db3e a292 12be
00000230: 1d8e ed3e 5843 433f d7f7 0f3f 8f82 3a3f
00000240: c01e dd3d 9c0d 243f a884 8e3d 7cba 3a3f
00000250: 09ac 433e 5410 2e3e 4870 cf3b 944a b43e
00000260: 8f1a 5a3e 7877 3e3e d237 e13e d77b 6abf
00000270: c147 1b3f 90ab 72bd 4ef5 933e f22e c73e
00000280: 8922 133f 2a8e febe e9da c93e c461 963e
00000290: 440d 2d3f 6c21 9d3f 7655 b73e cf76 253f
000002a0: e3bf a63e ea30 143f 8263 4e3f af0e 0b3f
000002b0: acfe 143f 2c71 343f dff5 7a3f d776 1c3f
000002c0: c64f f43d 53f2 2b3f cc62 cf3e 7ce8 383f
000002d0: a72f 5c3f 9f4a 253f 0f0f fe3e 0b6a db3e
000002e0: d1d9 2f3f 6caf aa3e 5cf4 c03e ad5b 92bf
000002f0: 0541 e6bd f9e0 64bf 3b81 193f 1d49 5c3e
00000300: 127e 0e3f b2d5 5bbf 94be 973e aa00 833e
00000310: 5580 163f e6e6 793f 2804 bb3e 60c7 013f
00000320: 60de 033f 8137 f43e 34ea 313f 7e06 243f
00000330: 4396 013f 9363 193f 607e 293f 2590 fe3e
00000340: 1bc1 bebd 2935 683f e1f8 e63e 0d28 083f
00000350: fb5a 023f bc1b 9d3e 25ab da3e f49d 1b3f
00000360: fee0 2d3f b947 ea3e 84e5 8d3e 9766 a5bf
00000370: 124c 763e 591b 6dbf 518e 073f a9d3 8abd
00000380: 5963 ba3e 1efb 5dbf ab4e 8e3e 5162 873e
00000390: 021a 6f3f 1e1e 563f c03b e33e 86a1 143f
000003a0: 21f9 cd3e d906 093f b6b8 403f 143d 423f
000003b0: b47c 503f a13d dd3e 9130 7d3f 2d5b 303f
000003c0: 07a7 b93d 7ddb 393f 2964 0c3f 4852 3e3f
000003d0: ba82 0f3f f867 203f e750 8c3e e1ab ab3e
000003e0: 6f2d a03e bdf4 bf3e 8cb2 9dbc d2f4 6abf
000003f0: 1d46 c0be c49c 6ebf 4f4d ff3e 06db a33e

bias f4 [32]
0.060384892 0.72996634 0.41729343 -0.095095016 0.041990403 0.25151622 0.1521656 0.23932028
0.25617844 0.3172506 0.25684947 0.07279831 0.24051434 0.041797895 0.1406843 0.27560446
0.0678364 0.31671953 0.24017988 0.07010682 0.22803389 0.4501098 -0.14492388 0.42936912
0.582598 0.8185289 0.41700265 0.2559254 0.37196177 0.25679383 0.0822857 0.984089
00000000: 2656 773d 13df 3a3f 7ca7 d53e 2dc1 c2bd
00000010: 21fe 2b3d bcc6 803e 4dd1 1b3e 6010 753e
00000020: d229 833e ac6e a23e c681 833e 4817 953d
00000030: 6449 763e 4534 2b3d 8c0f 103e 071c 8d3e
00000040: cfed 8a3d 1029 a23e b7f1 753e 2a94 8f3d
00000050: b781 693e cb74 e63e ed66 14be 45d6 db3e
00000060: 2425 153f 1c8b 513f 5f81 d53e a708 833e
00000070: c671 be3e 7b7a 833e 6885 a83d 42ed 7b3f

weight f4 [4, 32]
-0.345079 2.0013535 -0.5880492 0.039655373 -0.5382497 -0.44825715 -0.484424 -0.5405712
-0.08764762 -0.4422172 -0.38964945 -0.39805377 -0.59654814 -0.7159222 0.13567622 -0.4424058
-0.55538607 -0.42509636 -0.63200706 -0.3777808 -0.35876328 -0.6043546 -0.11573082 -0.57335585
1.7449538 2.0371919 -0.40372482 0.7030566 -0.55768496 -0.63275504 -0.39019403 1.484286
-0.21792166 2.114022 -0.425448 0.10835771 -0.09279583 -0.6413917 -0.37565595 -0.69698733
0.114182584 -0.51559484 -0.65984976 -0.25274757 -0.5467483 -0.29680955 -0.64638454 -0.4527944
-0.34000823 -0.3889676 -0.5083538 -0.40101433 -0.48588642 -0.5229186 -0.100895904 -0.67778593
2.4898126 1.2291447 -0.6419007 0.81536967 -0.7329802 -0.634347 -0.3010243 1.6101035
-0.86437666 -1.3930972 -0.503068 0.050557356 -0.102114655 -0.53299946 -0.6403357 -0.26743212
-1.6379961 -0.4379493 -0.51452804 -0.0079449415 -0.4605828 -0.5208791 -0.31650293 -0.6157414
-0.24588284 -0.7612286 -0.394427 -0.57238674 -0.4582141 -0.39707842 0.16244373 -0.32223547
1.5930299 2.2919679 -0.51872295 -1.7084951 -0.16463967 -0.3527324 -0.41057417 1.7508631
-0.59216416 2.6069758 -0.41791183 -0.14760226 -0.7175125 -0.60156035 -0.39897078 -0.43634218
0.2817059 -0.57812667 -0.4732293 -0.7151062 -0.40578607 0.55513126 -0.42511484 -0.61049026
-0.49938083 -0.4685895 -0.35865662 -0.6045205 -0.6212959 -0.41457736 0.01100547 -0.54517996
1.3515902 2.0139308 -0.28274265 0.54112935 -0.2660078 -0.30886725 -0.7097579 1.5116981
00000000: 32ae b0be 2d16 0040 648a 16bf ac6d 223d
00000010: bbca 09bf f681 e5be 6c06 f8be e062 0abf
00000020: 9880 b3bd 4b6a e2be 2280 c7be b4cd cbbe
00000030: 61b7 18bf ad46 37bf b5ee 0a3e 0383 e2be
00000040: c82d 0ebf 3ba6 d9be 37cb 21bf 7c6c c1be
00000050: d2af b7be fcb6 1abf 4804 edbd 73c7 12bf
00000060: a55a df3f 5a61 0240 05b5 cebe 84fb 333f
00000070: 71c4 0ebf 3cfc 21bf 83c7 c7be 15fd bd3f
00000080: db26 5fbe 234c 0740 52d4 d9be a6ea dd3d
00000090: bd0b bebd 3f32 24bf fa55 c0be c36d 32bf
000000a0: 8fd8 e93d 06fe 03bf eaeb 28bf 2168 81be
000000b0: b2f7 0bbf 6cf7 97be 7579 25bf abd4 e7be
000000c0: 8f15 aebe c326 c7be 7a23 02bf c051 cdbe
000000d0: 1bc6 f8be fedd 05bf 83a2 cebd 6183 2dbf
000000e0: 1759 1f40 9d54 9d3f 9b53 24bf 11bc 503f
000000f0: 97a4 3bbf 9164 22bf db1f 9abe df17 ce3f
00000100: ca47 5dbf 0251 b2bf 10c9 00bf 3b15 4f3d
00000110: 7d21 d1bd a772 08bf 0aed 23bf ddec 88be
00000120: dba9 d1bf e43a e0be 1cb8 03bf 802b 02bc
00000130: 82d1 ebbe 5558 05bf ac0c a2be 3aa1 1dbf
00000140: b6c8 7bbe e1df 42bf 56f2 c9be f087 12bf
00000150: 0a9b eabe dd4d cbbe a657 263e 0cfc a4be
00000160: 67e8 cb3f 9aaf 1240 07cb 04bf f8af dabf
00000170: 4d97 28be 5799 b4be c736 d2be 481c e03f
00000180: 1298 17bf b1d8 2640 8af8 d5be 0c25 17be
00000190: e6ae 37bf dcff 19bf e645 ccbe 3e68 dfbe
000001a0: c13b 903e 1c00 14bf 1c4b f2be 3311 37bf
000001b0: 31c3 cfbe 151d 0e3f a7a8 d9be 1749 1cbf
000001c0: d8ae ffbe f7ea efbe d7a1 b7be dbc1 1abf
000001d0: 400d 1fbf 7c43 d4be 4950 343c ea90 0bbf
000001e0: e800 ad3f 3ee4 0040 a5c3 90be 7487 0a3f
000001f0: 2d32 88be d923 9ebe b2b2 35bf 537f c13f

bias f4 [4]
-0.41202635 -0.04522886 -0.04494059 0.49023315
00000000: 1ef5 d2be e641 39bd a013 38bd d7ff fa3e

weight f4 [32, 8]
0.13343158 0.55593514 -0.18170239 1.0359657 0.2524169 0.47144505 -0.4351167 0.2063336
-0.065982245 -0.89547396 -0.06955473 0.19919348 0.09739188 0.8033548 0.9843789 -0.04878826
0.21505088 -0.026432294 -0.5706717 0.4328119 0.4922763 0.5855526 0.112503335 0.34523487
-0.5049046 -0.6368111 -0.15124612 -0.19236624 -0.29175997 -0.77182686 -0.1867594 -0.28210965
0.12500106 -0.17362617 -0.12776156 0.11131349 0.7575767 1.277288 0.52520233 -0.25106642
0.7411685 -0.53487 0.31525454 0.51912254 0.030533534 0.11276987 0.41197965 0.21991032
-0.29607746 -0.7155842 -0.47810936 -0.48340786 0.30447873 0.6497275 0.13928232 0.27316257
0.29347944 -1.4710633 0.39344236 -0.78938806 -0.57026374 -0.4715469 0.27244973 -0.0529567
0.26544812 -0.9393673 0.43423566 -0.52466184 -0.9081128 -0.743707 0.3831636 0.30283946
0.18154003 -1.8964056 -0.21772715 -0.81415576 0.3820759 0.6223102 -0.14629467 0.42952698
-0.10651497 -2.1585236 0.12277662 -0.57298994 0.55004334 0.17442577 0.20478553 -0.4461846
-0.36628222 0.03470471 -0.08697747 0.074935086 0.98108435 1.1148788 -0.12051223 -0.39602968
0.82354915 -1.2623631 0.27438736 -0.673357 -0.84343934 -0.06264487 0.0715813 0.12314109
-0.5950161 -1.4298356 -0.600047 -0.41934878 -0.37877727 -0.3465283 0.06418739 -0.027840108
-0.40936837 -1.985243 -0.32150677 -0.69526434 0.35261205 -0.0491571 -0.39701578 -0.022894623
0.00031265017 0.044596784 -0.0763596 -0.19580783 -1.0092406 -0.71822476 -0.62346745 0.035604253
0.07376536 0.049342427 0.6114961 -0.4178377 -0.2792697 0.51137465 0.1037287 0.0766442
-1.2532464 -1.7183292 -0.342095 -0.38333577 0.6409701 -0.19217736 0.23200238 0.14536583
-0.8629824 -1.4296346 0.0064644576 -0.25170887 0.44689396 0.015078322 0.0699942 0.08766245
-0.037593774 -2.1401 0.25383 -0.95836616 0.69045645 0.47933897 -0.13269138 0.014871908
0.25758436 -1.5179155 0.07094516 -0.87382734 0.8182799 0.4083864 -0.10076889 0.49527052
-0.039561424 -1.1059678 -0.14061269 -0.36426258 0.6235571 0.533851 0.1237938 -0.012419048
-0.6320204 -0.23052812 -0.49558523 -0.2723409 0.9521214 0.61644983 -0.03721894 0.03136464
0.8754024 0.7291501 0.8171089 -0.09862922 -0.9232092 0.21329182 -0.5559615 0.33443984
0.07691124 -0.0447636 -0.0060908706 -0.10091578 0.7590609 0.8390131 0.3916647 0.29463565
0.14835079 -0.18824418 0.26675633 0.0033816777 -0.73272544 -0.60323966 -0.6458896 0.099757865
-0.06938061 0.15788424 0.2577261 0.28869447 -1.0315812 -1.0184214 -0.2477089 0.78916
-0.01636909 -0.03154683 -0.29762995 -0.5668196 -0.8876646 0.6716936 -0.60220623 0.10608617
-0.45898488 0.22808202 1.7526146 -0.022816403 -0.8771289 -0.73515654 0.07968099 0.16517952
0.04455229 0.6507421 -0.044494435 -0.35955393 1.3002578 -0.098144144 -1.1433306 0.32828945
0.2030218 -0.64502054 0.21370499 -0.48612916 -0.64748436 -0.52462375 -0.5639699 -0.061612237
-0.0038644173 0.28452277 -0.36089605 -1.9529762 -0.013512279 0.0036943357 0.5025405 -0.26841542
00000000: 4aa2 083e c451 0e3f 3110 3abe 869a 843f
00000010: ca3c 813e 3f61 f13e 9ec7 debe 1e49 533e
00000020: b321 87bd c83d 65bf b672 8ebd 60f9 4b3e
00000030: 6575 c73d a9a8 4d3f 4100 7c3f 33d6 47bd
00000040: 4c36 5c3e 8a88 d8bc 8a17 12bf 8599 dd3e
00000050: a40b fc3e c6e6 153f 2668 e63d a0c2 b03e
00000060: 6e41 01bf 0d06 23bf 43e0 1abe a8fb 44be
00000070: 9061 95be 7296 45bf db3d 3fbe ad70 90be
00000080: 4700 003e 0fcb 31be edd3 02be 54f8 e33d
00000090: 8cf0 413f 2c7e a33f a973 063f c78b 80be
000000a0: 38bd 3d3f 3eed 08bf 0b69 a13e 37e5 043f
000000b0: 7621 fa3c e4f3 e63d ffee d23e 2c30 613e
000000c0: 7797 97be 8730 37bf c0ca f4be 3c81 f7be
000000d0: a3e4 9b3e 8b54 263f 06a0 0e3e f7db 8b3e
000000e0: f042 963e cd4b bcbf 4771 c93e 5615 4abf
000000f0: cefc 11bf 986e f1be 887e 8b3e 20e9 58bd
00000100: d1e8 873e 607a 70bf 2354 de3e 3d50 06bf
00000110: 157a 68bf 9563 3ebf 052e c43e c60d 9b3e
00000120: a1e5 393e 6bbd f2bf def3 5ebe 836c 50bf
00000130: 749f c33e b94f 1f3f 45ce 15be f6ea db3e
00000140: 8524 dabd 4025 0ac0 4f72 fb3d 78af 12bf
00000150: a4cf 0c3f ab9c 323e 4cb3 513e 4f72 e4be
00000160: 5889 bbbe 8726 0e3d 3e21 b2bd 9177 993d
00000170: 5828 7b3f 59b4 8e3f 1ecf f6bd 67c4 cabe
00000180: 1ed4 523f 1d95 a1bf 807c 8c3e 2061 2cbf
00000190: a4eb 57bf f44b 80bd 3799 923d 6531 fc3d
000001a0: fa52 18bf da04 b7bf ae9c 19bf e2b4 d6be
000001b0: 18ef c1be 286c b1be ae74 833d f010 e4bc
000001c0: bb98 d1be 711c febf 899c a4be d8fc 31bf
000001d0: 9189 b43e f558 49bd a745 cbbe 818d bbbc
000001e0: 32eb a339 1eab 363d 6c62 9cbd d981 48be
000001f0: cc2e 81bf 94dd 37bf 909b 1fbf c4d5 113d
00000200: 4b12 973d 491b 4a3d 028b 1c3f d3ee d5be
00000210: 70fc 8ebe 73e9 023f b66f d43d a2f7 9c3d
00000220: 616a a0bf 36f2 dbbf 1327 afbe 9644 c4be
00000230: 9e16 243f 24ca 44be 0892 6d3e c8da 143e
00000240: 6aec 5cbf 44fe b6bf cdd3 d33b fcdf 80be
00000250: 49cf e43e 110b 773c 1e59 8f3d 5f88 b33d
00000260: eefb 19bd 66f7 08c0 01f6 813e 7c57 75bf
00000270: c1c1 303f eb6b f53e 40e0 07be 4ea9 733c
00000280: 19e2 833e 0e4b c2bf b24b 913d 26b3 5fbf
00000290: cb7a 513f 0618 d13e eb5f cebd 1994 fd3e
000002a0: 290b 22bd 5a90 8dbf c6fc 0fbe a080 babe
000002b0: 70a1 1f3f 76aa 083f 9b87 fd3d 4379 4bbc
000002c0: 17cc 21bf 900f 6cbe 59bd fdbe 4470 8bbe
000002d0: 3abe 733f a8cf 1d3f e372 18bd 3578 003d
000002e0: 5f1a 603f 95a9 3a3f 0d2e 513f 1efe c9bd
000002f0: 7057 6cbf 2c69 5a3e 7e53 0ebf b33b ab3e
00000300: a483 9d3d 095a 37bd ed95 c7bb efac cebd
00000310: d151 423f 90c9 563f 4788 c83e 7cda 963e
00000320: 45e9 173e 15c3 40be 4994 883e 239f 5d3b
00000330: e593 3bbf ea6d 1abf 0559 25bf da4d cc3d
00000340: 6c17 8ebd 68ac 213e adf4 833e c3cf 933e
00000350: da0a 84bf a25b 82bf 67a7 7dbe 6406 4a3f
00000360: 7818 86bc 4037 01bd f462 98be 171b 11bf
00000370: fd3d 63bf 1df4 2b3f 302a 1abf b543 d93d
00000380: 1100 ebbe 558e 693e ad55 e03f 77e9 babc
00000390: 858b 60bf 3833 3cbf c92f a33d d224 293e
000003a0: 767c 363d 0997 263f cc3f 36bd 7417 b8be
000003b0: d96e a63f ccff c8bd a858 92bf 8e15 a83e
000003c0: f2e4 4f3e 1120 25bf 7bd5 5a3e ece5 f8be
000003d0: 89c1 25bf be4d 06bf 5560 10bf 1d5d 7cbd
000003e0: 2a42 7dbb f8ac 913e 5ec7 b8be 20fb f9bf
000003f0: 9b62 5dbc ab1c 723b 7fa6 003f bf6d 89be

bias f4 [32]
0.2988249 -0.2973865 0.5071195 0.117763616 0.23155753 -0.2603527 0.40803358 0.23429178
0.37043458 0.36499116 0.31305498 0.031840343 0.20544496 -0.34954587 0.2536834 -0.03188092
0.8003457 0.3240736 0.40177166 0.32819498 0.062283482 0.34967062 0.055676118 -0.16892995
0.0026603518 0.015375008 -0.017097693 -0.015006318 0.7854421 0.05712873 0.030700577 1.3887483
00000000: 94ff 983e 0b43 98be 95d2 013f 0d2e f13d
00000010: 6b1d 6d3e f34c 85be c7e9 d03e 2fea 6f3e
00000020: 9aa9 bd3e 1fe0 ba3e be48 a03e 056b 023d
00000030: 2a60 523e adf7 b2be cae2 813e 9195 02bd
00000040: 75e3 4c3f faec a53e 04b5 cd3e 2c09 a83e
00000050: f71c 7f3d 0708 b33e a40c 643d f9fb 2cbe
00000060: 4c59 2e3b 75e7 7b3c 7610 8cbc 0fdd 75bc
00000070: bc12 493f d1ff 693d c77f fb3c 81c2 b13f

weight f4 [32, 32]
0.7564757 -0.20079477 0.38719836 0.18922259 0.60559326 0.9604153 0.31000742 0.4197521
0.18424422 0.26002768 0.6262234 0.3781276 0.37185073 0.6306134 0.6168368 0.38308963
-0.0031418505 0.89455277 0.37832165 0.74166054 0.63195235 0.4673114 0.526749 0.7202736
0.30768615 0.51494575 0.7233849 -1.050633 0.44986847 -1.1628929 0.61076534 -0.24022694
0.78234637 0.20450601 1.2369558 -0.2816738 -0.47984156 0.78897417 0.31544903 -0.11852174
-0.34829605 -0.14388189 -0.16855222 -0.3900628 -0.24313393 -0.4078754 -0.36097676 -0.5547029
-0.40606967 0.094060026 -0.35063758 -0.58078164 -0.44477546 0.15759714 0.49758488 -1.1453041
-0.720166 0.9405571 0.5521579 -0.08381248 -0.70010567 -0.17380601 0.3761116 0.057692405
0.30241576 -0.795986 0.041220594 0.2758541 0.65289414 0.89999586 0.12478584 0.7358344
0.33143693 0.1673805 0.50825983 0.4843457 0.69341177 0.6502624 0.72956765 0.40696567
-0.3276247 0.78025335 0.5858082 0.7359719 0.33784854 0.30316877 0.12998763 0.37298745
0.41660166 0.37196884 0.50100625 -1.4101152 0.28277525 -0.9836334 0.5014624 0.34974733
0.0024823651 0.16083303 -0.15062284 -0.09490522 0.10310552 -0.060466602 -0.03618623 -0.10184418
0.09391053 0.08670953 0.028214822 -0.09934208 -0.17293121 -0.0075666853 0.024465933 -0.109287985
-0.049461707 0.09129756 -0.013538857 0.00797587 -0.04350484 -0.16008715 -0.1662156 -0.11086567
-0.089859374 0.026672056 -0.07869654 -0.06915895 0.1413057 0.03471341 0.099008024 -0.1155516
-0.5856198 -0.43214303 -0.25857344 0.54082495 0.17775181 0.55762285 -0.008390034 0.47291625
0.51740617 0.32732606 0.4502563 -0.16322696 0.45385063 0.72823954 0.5681622 0.732114
0.10013559 0.656977 0.07374434 0.7337523 0.20118664 0.18055065 0.01584598 0.33867595
0.22005682 0.18899038 0.4287282 -0.8750153 0.5992904 -0.0059931814 0.30480975 0.39124256
0.5845439 -0.5123027 0.40717682 0.27915263 0.66410404 1.2301449 0.36664215 0.63873285
0.32133693 0.586645 0.81438655 0.5245433 0.5822484 0.6710007 0.98101336 0.5827521
0.12607613 0.68906844 0.4129558 0.7184932 0.8638065 0.64962935 0.4912997 0.41597143
0.6832016 0.30833948 0.36833155 -1.0935189 -0.12627113 -0.8695168 0.5799213 0.22821124
0.5516225 -0.8767179 0.29664144 0.24578354 0.5713434 0.9663175 0.36563343 0.50786376
0.5181754 0.4757906 0.69766504 0.6202057 0.5084829 0.5785753 0.65709877 0.4756387
-0.08839573 0.9277471 0.46113086 0.52542984 0.50694615 0.30322617 0.41688734 0.59166497
0.66854644 0.436042 0.2736182 -1.2606953 0.22555776 -0.9119291 0.5137103 -0.052624617
0.37963653 -0.8788306 0.29356426 0.25841278 0.9274949 0.8419188 0.45813167 0.5716456
0.3958395 0.54723686 0.77268374 0.7465619 0.8127923 0.3871684 0.99294037 0.66964805
0.09396074 0.73923516 0.55600166 0.7440369 0.56475013 0.63799083 0.27849028 0.3183368
0.31541175 0.35800853 -0.026695568 -0.8417529 -0.38891873 -0.91540736 0.48737654 0.32623485
00000000: 64a8 413f 259d 4dbe dd3e c63e 91c3 413e
00000010: 2908 1b3f c7dd 753f 4bb9 9e3e bfe9 d63e
00000020: 84aa 3c3e 5922 853e 2d50 203f f199 c13e
00000030: 3863 be3e e16f 213f 04e9 1d3f 5324 c43e
00000040: 81e7 4dbb 6901 653f 60b3 c13e 77dd 3d3f
00000050: a1c7 213f 7143 ef3e 06d9 063f da63 383f
00000060: 0a89 9d3e 7cd3 033f c12f 393f 247b 86bf
00000070: 2955 e63e add9 94bf 1e5b 1c3f 0dfe 75be
00000080: da47 483f 066a 513e 9154 9e3f 8c37 90be
00000090: cbad f5be 36fa 493f 8982 a13e 87bb f2bd
000000a0: dc53 b2be c655 13be f498 2cbe 50b6 c7be
000000b0: 1af8 78be 0bd5 d0be f2d1 b8be 0201 0ebf
000000c0: 5de8 cfbe 8ba2 c03d c586 b3be 1bae 14bf
000000d0: 9cb9 e3be 2561 213e 72c3 fe3e 5399 92bf
000000e0: cd5c 38bf 5ac8 703f 385a 0d3f e1a5 abbd
000000f0: 203a 33bf 34fa 31be b391 c03e df4e 6c3d
00000100: 3dd6 9a3e bdc5 4bbf edd6 283d c03c 8d3e
00000110: 1224 273f 2166 663f b88f ff3d a55f 3c3f
00000120: 1ab2 a93e cb65 2b3e 511d 023f 29fc f73e
00000130: 6f83 313f 9977 263f f2c4 3a3f ce5d d03e
00000140: 6dbe a7be afbe 473f 87f7 153f a868 3c3f
00000150: 7cfa ac3e f038 9b3e 7a1b 053e 36f8 be3e
00000160: d04c d53e b372 be3e f241 003f a87e b4bf
00000170: ebc7 903e 66cf 7bbf d75f 003f 1512 b33e
00000180: 2daf 223b 6ab1 243e e03c 1abe ab5d c2bd
00000190: fd28 d33d d4ab 77bd 0338 14bd ae93 d0bd
000001a0: 2a54 c03d c494 b13d c522 e73c dc73 cbbd
000001b0: e114 31be f5f1 f7bb c86c c83c 61d2 dfbd
000001c0: 5c98 4abd 37fa ba3d 15d2 5dbc 39ad 023c
000001d0: 2232 32bd e3ed 23be 6c34 2abe 8a0d e3bd
000001e0: 3108 b8bd 5b7f da3c a72b a1bd 35a3 8dbd
000001f0: 71b2 103e a62f 0e3d b8c4 ca3d 51a6 ecbd
00000200: 2eeb 15bf da41 ddbe bd63 84be 8173 0a3f
00000210: 9204 363e 5fc0 0e3f 5a76 09bc 1422 f23e
00000220: bb74 043f 4897 a73e fe87 e63e f824 27be
00000230: 1c5f e83e e86d 3a3f 1473 113f d36b 3b3f
00000240: e313 cd3d a52f 283f 4607 973d 31d7 3b3f
00000250: df03 4e3e 45e2 383e 6ecf 813c ef66 ad3e
00000260: 9356 613e b286 413e 4382 db3e 0101 60bf
00000270: 186b 193f 7362 c4bb 0610 9c3e f250 c83e
00000280: aba4 153f 4526 03bf 7b79 d03e 18ed 8e3e
00000290: b902 2a3f 6375 9d3f 85b8 bb3e ff83 233f
000002a0: 4686 a43e 5e2e 163f a37b 503f 7848 063f
000002b0: 3b0e 153f b4c6 2b3f b123 7b3f 3e2f 153f
000002c0: 1a1a 013e ca66 303f f16e d33e 2cef 373f
000002d0: 6c22 5d3f 1c4e 263f a28b fb3e 35fa d43e
000002e0: 4de6 2e3f acde 9d3e f495 bc3e 6df8 8bbf
000002f0: 384d 01be a798 5ebf b975 143f 35b0 693e
00000300: 2237 0d3f 9670 60bf 63e1 973e aeae 7b3e
00000310: 9043 123f 9560 773f 4e34 bb3e 5c03 023f
00000320: 25a7 043f d39a f33e 2d9a 323f cdc5 1e3f
00000330: ef2b 023f 831d 143f a037 283f ea86 f33e
00000340: d208 b5bd d580 6d3f 5819 ec3e 9282 063f
00000350: 39c7 013f 7640 9b3e 4272 d53e 5b77 173f
00000360: dc25 2b3f e640 df3e af17 8c3e 775e a1bf
00000370: 9df8 663e 2f74 69bf 8582 033f e98c 57bd
00000380: b85f c23e 0bfb 60bf 0e4e 963e ae4e 843e
00000390: 4e70 6d3f fe87 573f 3c90 ea3e 5e57 123f
000003a0: 7aab ca3e b717 0c3f 9ace 453f ae1e 3f3f
000003b0: 2813 503f f03a c63e 5731 7e3f 0e6e 2b3f
000003c0: 7d6e c03d 843e 3d3f 2056 0e3f 3479 3e3f
000003d0: 7793 103f 5e53 233f 4796 8e3e 0bfd a23e
000003e0: a67d a13e e54c b73e aab0 dabc 1e7d 57bf
000003f0: 5b20 c7be 2358 6abf 6b89 f93e 4108 a73e

bias f4 [32]
0.06166077 0.7316543 0.4275773 -0.095095016 0.043960843 0.26390314 0.16083097 0.24746762
0.26217198 0.32885465 0.2679298 0.075444065 0.2511124 0.043887235 0.15771605 0.28582764
0.07651073 0.31474233 0.25075942 0.08284007 0.2268037 0.46083647 -0.14492388 0.43960977
0.59002316 0.8218422 0.42904764 0.24900025 0.38116452 0.2674732 0.09227488 0.9781434
00000000: 0190 7c3d b24d 3b3f 69eb da3e 2dc1 c2bd
00000010: 4910 343d 501e 873e e0b0 243e 2768 7d3e
00000020: 683b 863e a35f a83e 182e 893e 6b82 9a3d
00000030: ce91 803e 1ac3 333d 5180 213e 0058 923e
00000040: a8b1 9c3d e825 a13e 8a63 803e 0ea8 a93d
00000050: 3b3f 683e c2f2 eb3e ed66 14be 8814 e13e
00000060: c20b 173f 4064 523f 22ac db3e ecf9 7e3e
00000070: ff27 c33e 3ff2 883e 9dfa bc3d 9b67 7a3f

weight f4 [4, 32]
-0.3417473 2.0015738 -0.589492 0.039655373 -0.5490209 -0.44136533 -0.48087406 -0.53417724
-0.083394326 -0.44031247 -0.37614655 -0.4020304 -0.59773266 -0.6985589 0.123771936 -0.4380317
-0.56140107 -0.43076178 -0.62972426 -0.37432393 -0.34967813 -0.60157436 -0.11573082 -0.57158893
1.7074039 2.0067775 -0.39739722 0.70026577 -0.55591875 -0.6300051 -0.39206725 1.4706007
-0.2197059 2.0944483 -0.42153448 0.10835771 -0.08185698 -0.6472662 -0.3768066 -0.70431566
0.11958074 -0.5160724 -0.67584795 -0.25033504 -0.54295594 -0.32755432 -0.62769955 -0.45530602
-0.3314906 -0.38017124 -0.5074761 -0.40343985 -0.50266546 -0.5234486 -0.100895904 -0.6790287
2.4297884 1.2000158 -0.6470219 0.80636245 -0.7316507 -0.63514405 -0.2973008 1.581041
-0.84951085 -1.4324604 -0.49733558 0.050557356 -0.10458008 -0.52396834 -0.6291987 -0.2596539
-1.6314782 -0.42845145 -0.5049626 -0.003152223 -0.45319927 -0.5274649 -0.31765437 -0.605325
-0.24319476 -0.76207125 -0.39073333 -0.5612643 -0.44748577 -0.39191857 0.16244373 -0.31550422
1.5631131 2.2690494 -0.51132375 -1.6777065 -0.16245213 -0.3476099 -0.40533563 1.731742
-0.58687454 2.5260427 -0.4070635 -0.14760226 -0.7037266 -0.60360163 -0.3951506 -0.4375387
0.2709226 -0.5755636 -0.48113012 -0.7106509 -0.39875427 0.54833525 -0.41045406 -0.60810035
-0.48795465 -0.44701838 -0.35699105 -0.60117954 -0.6292971 -0.41254702 0.01100547 -0.5439898
1.3230658 1.9813075 -0.28762963 0.5535987 -0.26679942 -0.30681986 -0.69925296 1.5072609
00000000: 81f9 aebe c919 0040 f3e8 16bf ac6d 223d
00000010: a28c 0cbf a3fa e1be 2035 f6be d7bf 08bf
00000020: a5ca aabd a370 e1be 4896 c0be eed6 cdbe
00000030: 0205 19bf c2d4 32bf 247c fd3d b145 e0be
00000040: fbb7 0fbf cf8c dcbe 9c35 21bf 63a7 bfbe
00000050: 0309 b3be c700 1abf 4804 edbd a753 12bf
00000060: 368c da3f 0b6f 0040 a677 cbbe 9e44 333f
00000070: b150 0ebf 0448 21bf 0abd c8be a53c bc3f
00000080: 95fa 60be 710b 0640 5ed3 d7be a6ea dd3d
00000090: a2a4 a7bd 3db3 25bf cbec c0be 084e 34bf
000000a0: bfe6 f43d 521d 04bf 5f04 2dbf ea2b 80be
000000b0: 29ff 0abf 33b5 a7be ebb0 20bf df1d e9be
000000c0: 23b9 a9be cea5 c2be f4e9 01bf ab8f cebe
000000d0: afae 00bf ba00 06bf 83a2 cebd d3d4 2dbf
000000e0: a781 1b40 1e9a 993f 3aa3 25bf c56d 4e3f
000000f0: 764d 3bbf cd98 22bf cf37 98be 8d5f ca3f
00000100: 8b79 59bf dd5a b7bf c5a2 febe 3b15 4f3d
00000110: 152e d6bd ca22 06bf 2a13 21bf 5bf1 84be
00000120: 47d4 d0bf fd5d dbbe 3b45 01bf 8795 4ebb
00000130: bc09 e8be f107 07bf 98a3 a2be 94f6 1abf
00000140: 0c08 79be 1a17 43bf 330e c8be 04af 0fbf
00000150: db1c e5be 8da9 c8be a657 263e c589 a1be
00000160: 1714 c83f 1b38 1140 1de6 02bf 16bf d6bf
00000170: da59 26be edf9 b1be 2788 cfbe b9a9 dd3f
00000180: 693d 16bf afaa 2140 a16a d0be 0c25 17be
00000190: 6d27 34bf a385 1abf 2e51 cabe 1305 e0be
000001a0: 5eb6 8a3e 2358 13bf b056 f6be 38ed 35bf
000001b0: 8529 ccbe b35f 0c3f 0927 d2be 77ac 1bbf
000001c0: 31d5 f9be 98df e4be 88c7 b6be e7e6 19bf
000001d0: 9d19 21bf 5d39 d3be 4950 343c ea42 0bbf
000001e0: 385a a93f 7c9b fd3f 3144 93be a5b8 0d3f
000001f0: ef99 88be 7e17 9dbe 3e02 33bf eded c03f

bias f4 [4]
-0.40767634 -0.05454673 -0.057448477 0.48976234
00000000: f4ba d0be 646c 5fbd 184f 6bbd 21c2 fa3e

exp_avg f4 [32, 8]
-0.7193931 0.09948703 0.20159797 0.06798614 -0.29360947 -0.30324826 -0.28477556 -0.07011134
-0.22696494 -0.0013898773 -0.121062055 -0.16094723 -0.09314458 0.3173263 0.25953865 -0.19950883
-0.43586078 0.032204136 0.199144 0.04693512 -0.2550261 -0.23360579 -0.28397265 0.0366801
-0.03665619 -0.016190987 -0.0061039655 -0.02907592 0.051034972 0.05679967 -0.047744058 0.14692104
-0.35264695 0.24277844 0.11680403 0.14703941 -0.16997951 -0.5422154 -0.39293814 0.29284638
-0.15543866 -0.11022714 -0.16054094 0.115903154 0.17214875 -0.18016556 -0.2599412 -0.06439215
-0.08723396 -0.013760425 0.1076164 0.030494712 -0.10032459 -0.24398336 -0.10342476 0.15414889
-0.1545401 -0.09809005 -0.12194793 0.12851414 0.11301107 -0.030010728 -0.33637023 -0.025392404
-0.025463086 -0.06816763 -0.07485957 0.06459316 0.11575121 -0.023935804 -0.15776713 0.124520674
-0.14538725 -0.016233992 -0.00959154 0.056995817 -0.025923125 -0.27983537 -0.11903914 0.19521348
-0.005618456 -0.025933722 0.26718172 0.113012 -0.033534322 -0.44142187 -0.26206368 0.5907946
-0.18345004 0.19384317 0.19583508 0.007932624 -0.2160068 -0.29473776 -0.0058342936 0.11968077
-0.08016558 -0.064566955 -0.06276782 0.10353834 0.09810953 -0.015871078 -0.20668267 0.06634884
0.041440256 0.02353045 0.011474228 -0.001459934 0.019433932 0.10171961 -0.093815155 0.0019777955
0.02997355 -0.02416757 0.36632136 -0.00020733633 -0.3366352 -0.4526393 -0.08573626 0.5580351
-0.10419315 -0.24891585 0.124786995 0.025907103 0.052886784 0.17707688 -0.084325075 -0.15440196
0.17308925 0.036741707 -0.04802753 -0.031015422 0.0439414 -0.012486687 0.18697363 0.051229693
-0.007718736 0.010256879 0.17932856 0.08306162 -0.12073868 -0.73112726 -0.42175633 0.6714095
0.12116821 -0.026695669 0.08660181 0.08179225 -0.02422558 -0.4740115 -0.30033833 0.5321788
-0.21017832 -0.032917988 0.029573996 0.12388733 0.1359656 -0.6531348 -0.2891105 0.485848
-0.39383972 -0.023035565 -0.035335146 0.12928984 0.2475595 -0.41798678 -0.41161278 0.21238992
-0.13076252 -0.06900452 0.04437618 0.10831285 -0.003780375 -0.37871966 -0.25606596 0.22133404
-0.13340318 0.07087412 0.113911465 0.0382424 -0.14374433 -0.32980984 0.045255635 0.16005543
-0.27750632 -0.12103847 0.0067234267 0.01106598 0.023711052 -0.06151011 -0.15775548 -0.2710131
-0.294608 0.16794857 0.034235 0.06001437 0.062136192 -0.28729033 -0.17654817 0.26829207
-0.13542368 -0.21397957 0.046165947 -0.008708777 -0.05867998 0.14352204 -0.036699474 -0.0148278605
-0.3435803 -0.029431181 -0.035416692 0.007508757 0.13048324 0.19460925 -0.043944407 0.17727605
0.20514412 -0.14547768 -0.31757584 -0.20590101 0.42361835 1.0231954 0.9022196 0.70653695
-0.00923606 0.061194163 -0.060355976 -0.01178928 0.019729324 -0.09445689 0.0550315 0.09541468
0.93616164 0.11356036 -0.77120215 0.05705981 0.25689942 0.0357671 6e-45 -0.41012442
-0.070135295 0.011291793 0.0651919 -0.054617062 -0.08510128 0.16746 -0.05847627 -0.09370577
0.17354713 -0.09369327 0.08935376 0.013910249 0.05366082 -0.10331003 0.17006315 0.18961968
00000000: 252a 38bf dbbf cb3d b36f 4e3e 513c 8b3d
00000010: fb53 96be 5b43 9bbe 1ace 91be 8996 8fbd
00000020: 7f69 68be 8b2c b6ba 62ef f7bd 5acf 24be
00000030: 96c2 bebd 9878 a23e 40e2 843e 0b4c 4cbe
00000040: 2529 dfbe 7ce8 033d 68ec 4b3e 0a3f 403d
00000050: c892 82be 5b36 6fbe dd64 91be df3d 163d
00000060: cd24 16bd f6a2 84bc c603 c8bb a030 eebc
00000070: 0c0a 513d c5a6 683d 468f 43bd 7872 163e
00000080: 248e b4be e99a 783e f436 ef3d 8091 163e
00000090: 1c0f 2ebe a1ce 0abf 302f c9be f6ef 953e
000000a0: 502b 1fbe c4be e1bd d864 24be a25e ed3d
000000b0: c347 303e 527d 38be 0317 85be 08e0 83bd
000000c0: b8a7 b2bd 6873 61bc fd65 dc3d 0cd0 f93c
000000d0: fb76 cdbd c6d6 79be 5cd0 d3bd 35d9 1d3e
000000e0: c33f 1ebe 70e3 c8bd d6bf f9bd 3699 033e
000000f0: 5972 e73d 0fd9 f5bc b838 acbe bb03 d0bc
00000100: f697 d0bc 789b 8bbd f94f 99bd 6b49 843d
00000110: f80e ed3d 0515 c4bc b58d 21be b204 ff3d
00000120: 65e0 14be 26fd 84bc d625 1dbc 7274 693d
00000130: bc5c d4bc 9546 8fbe cbca f3bd 0be6 473e
00000140: 061b b8bb f572 d4bc 0bcc 883e d672 e73d
00000150: 495b 09bd 0c02 e2be 362d 86be 513e 173f
00000160: 54da 3bbe d37e 463e fe88 483e d6f7 013c
00000170: e330 5dbe dee7 96be 9a2d bfbb 311b f53d
00000180: da2d a4bd ae3b 84bd 6a8c 80bd e90b d43d
00000190: a6ed c83d 1004 82bc 9fa4 53be e7e1 873d
000001a0: 42bd 293d eec2 c03c 67fe 3b3c 425b bfba
000001b0: e933 9f3c 5f52 d03d 2922 c0bd e79d 013b
000001c0: 178b f53c 11fb c5bc 798e bb3e 6c68 59b9
000001d0: 735b acbe 57c0 e7be 7e96 afbd 63db 0e3f
000001e0: 3863 d5bd cce3 7ebe 5390 ff3d 223b d43c
000001f0: d09f 583d a453 353e a0b2 acbd 8c1b 1ebe
00000200: 4f3e 313e 797e 163d 84b8 44bd 0e14 febc
00000210: e6fb 333d f694 4cbc 0476 3f3e 3ad6 513d
00000220: 73ed fcbb 780c 283c e8a1 373e 361c aa3d
00000230: d745 f7bd 282b 3bbf 72f0 d7be 7ee1 2b3f
00000240: 0a27 f83d e0b0 dabc 4a5c b13d b282 a73d
00000250: b974 c6bc a3b1 f2be f2c5 99be df3c 083f
00000260: fc38 57be 03d5 06bd 2a45 f23c a4b8 fd3d
00000270: 913a 0b3e d833 27bf 4b06 94be 12c1 f83e
00000280: 5ca5 c9be 15b5 bcbc 96bb 10bd 8e64 043e
00000290: 3d80 7d3e 5d02 d6be e9be d2be be7c 593e
000002a0: 9ce6 05be 3e52 8dbd ccc3 353d 21d3 dd3d
000002b0: 2bc0 77bb 8be7 c1be 141b 83be 64a5 623e
000002c0: d89a 08be 7326 913d 6a4a e93d 10a4 1c3d
000002d0: b731 13be d6dc a8be f95d 393d 92e5 233e
000002e0: 4f15 8ebe 04e3 f7bd 3150 dc3b 164e 353c
000002f0: ae3d c23c 06f2 7bbd a78a 21be 3bc2 8abe
00000300: dcd6 96be b6fa 2b3e 003a 0c3d a1d1 753d
00000310: 8582 7e3d b817 93be 0bc9 34be 945d 893e
00000320: 81ac 0abe 761d 5bbe 8118 3d3d 42af 0ebc
00000330: 6b5a 70bd 71f7 123e 3052 16bd 8ef0 72bc
00000340: c2e9 afbe a919 f1bc 1811 11bd 050c f63b
00000350: 669d 053e a647 473e 0dff 33bd da87 353e
00000360: 4d11 523e 1af8 14be 4d99 a2be b7d7 52be
00000370: 81e4 d83e 11f8 823f ddf7 663f 9bdf 343f
00000380: d852 17bc bba6 7a3d d437 77bd d327 41bc
00000390: 649f a13c 9d72 c1bd b668 613d c668 c33d
000003a0: 4aa8 6f3f 5692 e83d 816d 45bf 8cb7 693d
000003b0: 5288 833e 8680 123d 0400 0000 d4fb d1be
000003c0: 18a3 8fbd 3601 393c 5583 853d 24b6 5fbd
000003d0: 9449 aebd a27a 2b3e d084 6fbd d0e8 bfbd
000003e0: 57b6 313e 42e2 bfbd 1bff b63d d0e7 633c
000003f0: 73cb 5b3d 3694 d3bd 0925 2e3e a92b 423e

exp_avg_sq f4 [32, 8]
3.6617734 7.225368 3.2668786 0.40848663 3.210327 5.398572 2.4744163 3.484093
2.5729134 0.047294714 1.6900122 0.27188903 2.4374692 3.7310264 7.860386 5.6278954
1.6325912 1.516324 2.2134094 0.20139098 2.449831 4.001001 1.9632987 2.09683
0.29114857 0.0297658 0.15065667 0.10716277 0.45972326 0.58440256 0.52693194 0.49011958
7.9446483 5.982473 4.3083043 1.1593041 4.452508 6.21495 13.206674 8.375115
9.302056 0.20553958 2.6592207 0.50272894 3.840748 7.772243 14.886177 14.554087
0.66767055 0.033472147 0.8362227 0.089633904 1.0187157 1.4650841 1.0353742 1.3630086
4.404393 0.11526042 1.353118 0.6787898 2.189238 3.9187307 7.4322643 6.798063
1.6448674 0.11597319 0.47724003 0.24605563 0.8166181 1.2731702 2.7175822 2.668469
1.5320882 0.0342558 0.8497884 0.20017539 1.0146793 1.4122858 2.5401788 2.8400424
3.7618682 0.09242698 4.0758743 0.8104132 4.835744 7.2675433 7.2621207 4.166698
0.7183107 1.9274771 1.7220567 0.19438387 1.6688751 2.7681115 0.82634485 0.9714215
3.2292104 0.1123568 0.89128333 0.45211044 1.7215924 2.6036313 5.5244265 5.889522
0.38814032 0.007849106 0.34006524 0.15012261 1.0112002 1.2906238 0.82436335 0.4566841
2.8841157 0.08561954 5.0844216 0.7919073 6.0819964 8.144679 1.0901911 5.2563844
1.7714876 0.9220814 0.5300889 0.38783497 1.6525061 2.0110343 1.7476387 2.9572394
0.8302894 1.3869605 0.32550374 0.20615992 0.5414648 0.4740784 0.8527989 0.30216768
1.9132229 0.0802969 6.3772383 1.0939581 7.117481 11.846779 6.52119 7.602566
1.0489683 0.050843406 2.3383045 0.46699974 2.6689043 4.066228 2.8533766 3.1957297
5.54664 0.11909997 3.7893975 0.9403059 4.202417 6.1144233 9.098191 11.239766
4.1955523 0.09857605 1.9070929 0.73543143 2.1228163 3.1448658 7.1588492 8.874939
2.2266884 0.07523845 1.4495149 0.29063204 1.6277032 2.2282608 3.5464087 3.5348132
0.28586435 0.2863988 1.1596044 0.11326795 1.244001 1.996441 0.5102192 0.7320964
2.537504 1.8976842 0.5543528 0.32836685 0.8144517 1.1136583 2.914409 3.211296
2.8642907 1.5886278 1.379802 0.3695915 1.4486595 1.7292645 6.1986485 5.8008223
0.97290665 0.33564696 0.32066834 0.19263265 0.7873296 0.9980842 0.6575003 0.93497103
2.7163396 3.546356 0.8198944 0.4211234 1.5809162 1.72284 2.601644 2.5340505
11.683165 10.294388 13.50329 4.1311984 18.80686 23.295568 8.888579 11.368035
0.2937104 0.09942607 0.07497835 0.03499873 0.14178097 0.20525427 0.43087828 0.43265453
5.12911 9.337645 6.4703193 0.7915265 6.137857 8.98083 1.7753008e-14 5.327056
2.2318516 0.13053623 0.6733805 0.38226157 1.6410133 2.1055887 1.5350496 2.2740202
0.66642874 1.2658001 0.44571942 0.19023293 0.4919715 0.62621975 0.92774963 0.57936406
00000000: 7f5a 6a40 3736 e740 8a14 5140 2925 d13e
00000010: ff75 4d40 1ac1 ac40 d65c 1e40 61fb 5e40
00000020: 9daa 2440 1ab8 413d 5252 d83f 0a35 8b3e
00000030: 7fff 1b40 23c9 6e40 4888 fb40 b817 b440
00000040: c0f8 d03f e816 c23f 80a8 0d40 7039 4e3e
00000050: 08ca 1c40 3308 8040 5f4d fb3f 7632 0640
00000060: 6d11 953e 68d7 f33c be45 1a3e 2878 db3d
00000070: d960 eb3e 689b 153f 03e5 063f f4f0 fa3e
00000080: 8f3a fe40 6b70 bf40 a1dd 8940 1464 943f
00000090: f27a 8e40 dfe0 c640 894e 5341 7900 0641
000000a0: 39d5 1441 f878 523e ac30 2a40 d8b2 003f
000000b0: d1ce 7540 37b6 f840 c82d 6e41 8add 6841
000000c0: 75ec 2a3f 171a 093d b112 563f fb91 b73d
000000d0: 4765 823f e087 bb3f 2487 843f 1177 ae3f
000000e0: caf0 8c40 a80d ec3d f832 ad3f 2bc5 2d3f
000000f0: 7a1c 0c40 7ccc 7a40 1cd5 ed40 bb89 d940
00000100: 048b d23f 5a83 ed3d ce58 f43e 02f6 7b3e
00000110: e20d 513f 3ef7 a23f deec 2d40 32c8 2a40
00000120: 771b c43f cf4f 0c3d bc8b 593f c7fa 4c3e
00000130: 03e1 813f c8c5 b43f 4a92 2240 41c3 3540
00000140: 73c2 7040 5b4a bd3d 906d 8240 3d77 4f3f
00000150: 6abe 9a40 b78f e840 4b63 e840 9755 8540
00000160: 36e3 373f 92b7 f63f 5b6c dc3f 910c 473e
00000170: b39d d53f bd28 3140 568b 533f 14af 783f
00000180: 62ab 4e40 521b e63d 252b 643f 057b e73e
00000190: 245d dc3f e5a1 2640 1ac8 b040 f776 bc40
000001a0: 54ba c63e 8999 003c 081d ae3e beb9 193e
000001b0: 026f 813f 2933 a53f 7a09 533f 80d2 e93e
000001c0: 5a95 3840 4c59 af3d 95b3 a240 70ba 4a3f
000001d0: b79f c240 9b50 0241 628b 8b3f 4d34 a840
000001e0: 1bc0 e23f 870d 6c3f e8b3 073f 4e92 c63e
000001f0: 5285 d33f c9b4 0040 a0b2 df3f 6943 3d40
00000200: d98d 543f ec87 b13f 6da8 a63e 961b 533e
00000210: 709d 0a3f 67ba f23e 0751 5a3f b9b5 9a3e
00000220: 7de4 f43f b372 a43d 5612 cc40 d206 8c3f
00000230: 68c2 e340 688c 3d41 97ad d040 3848 f340
00000240: 9844 863f 2d41 503d c8a6 1540 971a ef3e
00000250: 54cf 2a40 8a1e 8240 b99d 3640 d686 4c40
00000260: 137e b140 afea f33d 7d85 7240 e3b7 703f
00000270: 337a 8640 5ba9 c340 3192 1141 15d6 3341
00000280: f741 8640 3de2 c93d 9f1b f43f 3c45 3c3f
00000290: 39dc 0740 7b45 4940 4b15 e540 c0ff 0d41
000002a0: 1082 0e40 9e16 9a3d b489 b93f b9cd 943e
000002b0: 9458 d03f d39b 0e40 5cf8 6240 613a 6240
000002c0: d05c 923e dda2 923e eb6d 943f 07f9 e73d
000002d0: 6d3b 9f3f 618b ff3f ba9d 023f ab6a 3b3f
000002e0: 7766 2240 51e7 f23f 11ea 0d3f b31f a83e
000002f0: e87f 503f 5b8c 8e3f ad85 3a40 e085 4d40
00000300: 8a50 3740 2858 cb3f 5a9d b03f 193b bd3e
00000310: ad6d b93f 8a58 dd3f 545b c640 56a0 b940
00000320: 6910 793f ebd9 ab3e a42e a43e 7e41 453e
00000330: 6f8e 493f 7282 7f3f f151 283f 435a 6f3f
00000340: 82d8 2d40 7ff7 6240 99e4 513f 7c9d d73e
00000350: 765b ca3f 0586 dc3f 5681 2640 e22d 2240
00000360: 3eee 3a41 d0b5 2441 7a0d 5841 c732 8440
00000370: 7374 9641 535d ba41 9f37 0e41 79e3 3541
00000380: 3661 963e e59f cb3d 408e 993d d45a 0f3d
00000390: 082f 113e 2d2e 523e 149c dc3e e584 dd3e
000003a0: ab21 a440 fe66 1541 db0c cf40 7ba1 4a3f
000003b0: 5369 c440 7bb1 0f41 a6e7 9f28 3e77 aa40
000003c0: a8d6 0e40 4aab 053e aa62 2c3f cab7 c33e
000003d0: b90c d23f f7c1 0640 817c c43f 8c89 1140
000003e0: 139b 2a3f bd05 a23f 5635 e43e 6ccc 423e
000003f0: b0e3 fb3e f04f 203f 0081 6d3f 3451 143f

exp_avg f4 [32]
-0.7787235 0.3112232 -0.5082901 0.1258063 -0.30230322 -0.43372717 -0.1139371 -0.62234205
-0.24511988 -0.1080876 -0.4803945 0.117953464 -0.36533055 -0.005819517 0.3035668 -0.5998405
0.3628114 -0.29589766 -0.046770804 -0.32645938 -0.56876117 -0.3593299 0.0073700477 -0.37703708
-0.17890413 -0.2674225 -0.32502088 0.7200795 0.15422691 0.9485385 0.1351621 0.234912
00000000: 6c5a 47bf a658 9f3e 4d1f 02bf 5ed3 003e
00000010: 7dc7 9abe 7d11 debe db57 e9bd cf51 1fbf
00000020: b500 7bbe 085d ddbd 45f6 f5be 9691 f13d
00000030: 9b0c bbbe a6b1 bebb 1c6d 9b3e 268f 19bf
00000040: 6ac2 b93e e67f 97be be92 3fbd af25 a7be
00000050: 559a 11bf 17fa b7be 7180 f13b 010b c1be
00000060: a532 37be 9aeb 88be 2369 a6be 2157 383f
00000070: a9ed 1d3e 6bd3 723f ef67 0a3e c58c 703e

exp_avg_sq f4 [32]
23.019106 8.974902 8.970008 1.464189 39.33232 27.53535 2.868174 18.28712
7.177551 6.5833354 19.438198 6.0199385 13.39779 1.4931904 18.696932 7.288933
5.2897034 19.721243 10.031062 26.327898 18.811148 9.987351 2.6719654 10.137687
13.980901 4.7465625 14.686337 62.01251 0.98927116 30.254189 8.662694 4.6222672
00000000: 2127 b841 3399 0f41 2785 0f41 8c6a bb3f
00000010: 4c54 1d42 6648 dc41 2a90 3740 064c 9241
00000020: 7fae e540 afaa d240 6e81 9b41 56a3 c040
00000030: 595d 5641 dd20 bf3f 5193 9541 f03e e940
00000040: 4045 a940 1bc5 9d41 3b7f 2041 899f d241
00000050: 3b7d 9641 31cc 1f41 7b01 2b40 f733 2241
00000060: c5b1 5f41 d7e3 9740 3dfb 6a41 cf0c 7842
00000070: e040 7d3f 9408 f241 659a 0a41 9de9 9340
